…
   [0.63137255 0.62745098 0.62745098]
   [0.81960784 0.80784314 0.77254902]]

  ...

  [[0.36862745 0.34901961 0.36862745]
   [0.74509804 0.76078431 0.7372549 ]
   [0.4        0.41568627 0.43529412]
   ...
   [… ...
   [… ...
   [0.50196078 0.48235294 0.48627451]
   [0.38039216 0.4        0.4       ]
   [0.62745098 0.67058824 0.68627451]]]]
Compiling model...
_________________________________________________________________
Layer (type)                 Output Shape              Param #   
=================================================================
conv2d_6 (Conv2D)            (None, 112, 112, 32)      896       
_________________________________________________________________
activation_8 (Activation)    (None, 112, 112, 32)      0         
_________________________________________________________________
batch_normalization_7 (Batch (None, 112, 112, 32)      128       
_________________________________________________________________
max_pooling2d_4 (MaxPooling2 (None, 37, 37, 32)        0         
_________________________________________________________________
dropout_4 (Dropout)          (None, 37, 37, 32)        0         
_________________________________________________________________
conv2d_7 (Conv2D)            (None, 37, 37, 64)        18496     
_________________________________________________________________
activation_9 (Activation)    (None, 37, 37, 64)        0         
_________________________________________________________________
batch_normalization_8 (Batch (None, 37, 37, 64)        256       
_________________________________________________________________
conv2d_8 (Conv2D)            (None, 37, 37, 64)        36928     
_________________________________________________________________
activation_10 (Activation)   (None, 37, 37, 64)        0         
_________________________________________________________________
batch_normalization_9 (Batch (None, 37, 37, 64)        256       
_________________________________________________________________
max_pooling2d_5 (MaxPooling2 (None, 18, 18, 64)        0         
_________________________________________________________________
dropout_5 (Dropout)          (None, 18, 18, 64)        0         
_________________________________________________________________
conv2d_9 (Conv2D)            (None, 18, 18, 128)       73856     
_________________________________________________________________
activation_11 (Activation)   (None, 18, 18, 128)       0         
_________________________________________________________________
batch_normalization_10 (Batc (None, 18, 18, 128)       512       
_________________________________________________________________
conv2d_10 (Conv2D)           (None, 18, 18, 128)       147584    
_________________________________________________________________
activation_12 (Activation)   (None, 18, 18, 128)       0         
_________________________________________________________________
batch_normalization_11 (Batc (None, 18, 18, 128)       512       
_________________________________________________________________
max_pooling2d_6 (MaxPooling2 (None, 9, 9, 128)         0         
_________________________________________________________________
dropout_6 (Dropout)          (None, 9, 9, 128)         0         
_________________________________________________________________
flatten_2 (Flatten)          (None, 10368)             0         
_________________________________________________________________
dense_3 (Dense)              (None, 1024)              10617856  
_________________________________________________________________
activation_13 (Activation)   (None, 1024)              0         
_________________________________________________________________
batch_normalization_12 (Batc (None, 1024)              4096      
_________________________________________________________________
dense_4 (Dense)              (None, 7)                 7175      
_________________________________________________________________
activation_14 (Activation)   (None, 7)                 0         
=================================================================
Total params: 10,908,551
Trainable params: 10,905,671
Non-trainable params: 2,880
_________________________________________________________________
Training network...
Epoch 1/100
2/2 [==============================] - 19s 10s/step - loss: 2.2707 - acc: 0.2344

Epoch 00001: loss improved from inf to 2.27066, saving model to abacaFiberBestModel.model
…
